models/model.pt (torch, 404316 bytes, 8 tensors)

l1.weight f4 [128, 6]
0.116707236 0.16827677 0.14728715 -0.21931891 -0.3077213 0.036982387 -0.38023058 -0.66126007
-0.5002404 -9.117768 -9.249269 -6.154041 25.174494 25.270065 24.874893 25.257528
28.670576 29.445309 -6.2488575 -6.129404 -5.8941555 -5.8461576 -5.859995 -6.105521
-5.705439 -5.70572 -6.1698537 -6.1188383 5.876211 6.388206 -6.228807 -6.3818007
-5.7431874 -5.7889743 6.053802 5.7012043 -0.011438398 -0.09574831 0.0067442227 -0.28596708
-0.25572562 -0.37947875 -0.1645939 0.34484908 -0.23940451 -0.11700235 -0.059722867 0.02449395
-5.414059 -5.5690017 -5.53884 -5.6988325 -5.4421763 -5.125498 -6.017787 -6.1682844
-6.2694592 -5.722474 -5.7083097 -5.950373 -5.7121696 -6.405162 -6.0697527 -5.99254
5.63353 6.235868 -9.044317 -9.10928 -9.101923 -9.633229 -5.5979476 42.011665
-5.619783 -6.249003 -5.65879 -6.2801094 -5.8512683 -5.606167 0.2423731 0.035445094
-0.22347045 -0.32745415 -0.0026561471 0.12575924 -0.26693916 -0.16781138 -0.29093778 -0.3496231
0.2750049 -0.004354576 -0.28832948 -0.033691525 0.3070135 -0.18500221 0.023204908 0.087108806
-0.1936806 0.17720824 -0.26625642 -0.24261647 -0.13419713 0.00320623 -5.9877715 -5.885858
-6.2928014 -5.8099003 6.284352 6.1749287 -10.236265 -10.714303 -10.748122 -8.393863
-17.103325 -3.921171 -5.819006 -5.958621 -5.9097915 -5.614567 -5.9842396 -6.265396
-0.08351825 0.12591366 0.21872196 -0.34828353 0.35010892 -0.3022879 -2.0223823 -7.4487896
-8.763939 -6.1578164 3.082826 2.102929 -2.378244 -2.1522286 0.9150811 -3.9639068
-6.2193427 -6.4535694 0.024752907 0.130816 -0.33509183 -0.21824123 0.16868606 -0.048016947
-9.9492035 -10.52362 -18.290659 -2.206641 -6.180205 -5.455373 -0.0813752 -0.19545427
0.07852628 -0.3916047 0.18120079 -0.038715612 -0.07104563 -0.25189605 -0.12542836 -0.15905043
0.012547372 -0.044992 -5.793471 -5.6818247 -5.9082046 -6.0314984 -5.7961082 -6.350463
-0.066582724 -0.07474223 -0.23043391 -0.3537527 -0.012135211 -0.35092303 36.607246 36.700363
37.21277 39.691093 36.98449 -72.188774 0.3176849 0.30674595 -0.269674 -0.38562754
-0.09343843 0.29110885 -5.5552754 -5.11752 -5.22252 -5.92001 -5.163495 -5.1451416
-1.1615078 -0.5772565 0.09475714 -2.0683568 -11.719605 -7.613796 -1.2959123 -1.1239378
-0.202525 -2.34813 -10.569488 -7.082647 -1.1889824 -1.1502943 -2.0541096 -1.1763332
-8.740657 -1.9000653 -5.633552 -6.112542 -6.11222 -5.6366854 -6.1574183 6.1714134
-0.25832576 -0.15566492 -0.10264009 -0.38333723 0.25794357 0.20006241 -6.021381 -6.0242743
-6.142125 -5.837847 5.600478 -6.067274 -4.40339 -4.1827526 -2.2330956 -6.959592
3.2740028 5.77326 0.170857 0.25370556 -0.18995573 -0.16213204 -0.22337069 0.20815071
-7.439316 -7.673898 -10.130462 -4.2756166 -4.224461 5.9876523 -13.563314 -13.218209
-14.824579 -6.3766327 -12.835651 1.3504963 0.021207128 0.068022825 -0.31180108 -0.29738227
00000000: 3404 ef3d bf50 2c3e 71d2 163e 2395 60be
00000010: a58d 9dbe d87a 173d 95ad c2be 5748 29bf
00000020: c10f 00bf 61e2 11c1 01fd 13c1 e7ed c4c0
00000030: 5d65 c941 1829 ca41 c8ff c641 6b0f ca41
00000040: 575d e541 fe8f eb41 a4f6 c7c0 1424 c4c0
00000050: ec9c bcc0 b913 bbc0 1485 bbc0 6e60 c3c0
00000060: f592 b6c0 4295 b6c0 716f c5c0 86cd c3c0
00000070: ec09 bc40 2f6c cc40 6352 c7c0 b637 ccc0
00000080: 31c8 b7c0 473f b9c0 bfb8 c140 4470 b640
00000090: 1e68 3bbc b117 c4bd a4fe dc3b 476a 92be
000000a0: 78ee 82be 0a4b c2be 4e8b 28be 0f90 b03e
000000b0: 7526 75be ee9e efbd f79f 74bd 89a7 c83c
000000c0: f93f adc0 4335 b2c0 2d3e b1c0 d65c b6c0
000000d0: 4f26 aec0 1404 a4c0 b691 c0c0 9662 c5c0
000000e0: 699f c8c0 821e b7c0 79aa b6c0 7569 bec0
000000f0: 18ca b6c0 16f7 ccc0 6a3b c2c0 e3c2 bfc0
00000100: e145 b440 3b8c c740 86b5 10c1 9cbf 11c1
00000110: 7aa1 11c1 b521 1ac1 6322 b3c0 f20b 2842
00000120: 43d5 b3c0 d5f7 c7c0 cf14 b5c0 a8f6 c8c0
00000130: 973d bbc0 b865 b3c0 a730 783e e02e 113d
00000140: 70d5 64be 12a8 a7be c112 2ebb 08c7 003e
00000150: 40ac 88be bfd6 2bbe ccf5 94be cd01 b3be
00000160: 71cd 8c3e d5b0 8ebb ec9f 93be 2000 0abd
00000170: e030 9d3e 3871 3dbe 3818 be3c 1a66 b23d
00000180: 3554 46be 1476 353e c352 88be 7470 78be
00000190: f96a 09be 9d1f 523b d39b bfc0 f358 bcc0
000001a0: a15e c9c0 b4ea b9c0 6919 c940 0499 c540
000001b0: bec7 23c1 c96d 2bc1 4ff8 2bc1 434d 06c1
000001c0: 9cd3 88c1 77f4 7ac0 4c35 bac0 06ad bec0
000001d0: 031d bdc0 88aa b3c0 e47e bfc0 207e c8c0
000001e0: 9e0b abbd 83ef 003e a6f8 5f3e 3852 b2be
000001f0: 7a41 b33e 7bc5 9abe b66e 01c0 7c5c eec0
00000200: 1839 0cc1 d50c c5c0 054d 4540 6496 0640
00000210: 2635 18c0 1dbe 09c0 c142 6a3f a6b0 7dc0
00000220: db04 c7c0 a483 cec0 9cc6 ca3c a1f4 053e
00000230: 2891 abbe a17a 5fbe 0abc 2c3e 6bad 44bd
00000240: f02f 1fc1 bf60 28c1 4553 92c1 9b39 0dc0
00000250: 3dc4 c5c0 6a92 aec0 0aa8 a6bd 2a25 48be
00000260: 63d2 a03d 6980 c8be b38c 393e 4394 1ebd
00000270: 5f80 91bd 85f8 80be 4b70 00be 1ede 22be
00000280: 7e93 4d3c 8849 38bd 1d64 b9c0 82d1 b5c0
00000290: 0310 bdc0 0902 c1c0 b879 b9c0 fe36 cbc0
000002a0: 865c 88bd 7412 99bd def6 6bbe 131f b5be
000002b0: c4d2 46bc 2fac b3be d26d 1242 2ccd 1242
000002c0: e0d9 1442 aec3 1e42 1ef0 1342 a760 90c2
000002d0: 98a7 a23e ce0d 9d3e b612 8abe f970 c5be
000002e0: a65c bfbd 380c 953e d1c4 b1c0 b9c2 a3c0
000002f0: e21e a7c0 b970 bdc0 5a3b a5c0 00a5 a4c0
00000300: 4aac 94bf 15c7 13bf 0810 c23d f55f 04c0
00000310: 8183 3bc1 38a4 f3c0 74e0 a5bf 32dd 8fbf
00000320: b762 4fbe c347 16c0 9f1c 29c1 0ba5 e2c0
00000330: 9330 98bf d83c 93bf 8876 03c0 1692 96bf
00000340: bbd9 0bc1 5735 f3bf 0f46 b4c0 f299 c3c0
00000350: 4e97 c3c0 ba5f b4c0 9209 c5c0 387c c540
00000360: 4643 84be a066 1fbe f834 d2bd c744 c4be
00000370: 2e11 843e 29dd 4c3e 27af c0c0 dbc6 c0c0
00000380: 4a8c c4c0 a5cf bac0 1e37 b340 1c27 c2c0
00000390: 92e8 8cc0 1cd9 85c0 0aeb 0ec0 fab4 dec0
000003a0: 4389 5140 8cbe b840 23f5 2e3e b2e5 813e
000003b0: c183 42be f105 26be 49bb 64be 7625 553e
000003c0: e00e eec0 9390 f5c0 5f16 22c1 dad1 88c0
000003d0: c92e 87c0 d99a bf40 5603 59c1 c97d 53c1
000003e0: 7a31 6dc1 600d ccc0 d45e 4dc1 10dd ac3f
000003f0: 92ba ad3c 8d4f 8b3d 64a4 9fbe 7d42 98be

l1.bias f4 [128]
0.16164576 -9.6145735 27.557245 -5.656513 6.2208467 6.108244 0.27939996 -0.23199973
-5.2279873 -5.89328 5.896554 -10.896094 -6.1985707 0.4033937 0.3218664 -0.21516319
0.30825812 -6.381379 -16.212788 -5.9970293 -0.36658385 2.6527345 -5.7744174 0.13016503
-4.281726 -0.22629493 -0.30634713 -6.280578 -0.15206775 38.920517 0.17556481 -5.3849115
-8.884136 -7.568577 -5.516863 -6.2614655 -0.047970664 -5.8308887 1.5304672 -0.3125926
-4.788139 -13.207282 0.015941603 -0.21873179 -3.8824935 -5.8092127 6.2515893 -12.543778
67.60768 -6.059649 -22.959316 5.1557846 0.054365214 -0.27409464 -22.996494 -5.4887147
0.27102497 5.974558 -3.7453396 -13.135266 3.1667347 -5.5333056 -0.7209923 -2.1522555
-10.8025 -6.2170424 -3.370663 -5.8942056 -10.827534 -6.0946226 -6.3425665 -3.5509107
-10.487849 0.11826563 -0.04419172 24.394289 -1.4806157 -0.14263803 -5.8089094 -41.720177
-5.9702415 0.32089633 3.949154 6.0856028 -10.068655 -6.21197 -0.20740397 0.65811956
-0.098862365 -9.604324 -2.2878842 -5.7440886 -12.036187 -5.9311285 -0.37879908 6.175318
0.3837562 -16.005701 -2.9662056 -12.493242 -25.767986 -6.280826 -6.394018 -31.499304
0.26013085 0.24774593 12.959311 -0.38093576 -6.373434 -6.3186445 6.2748046 -6.0334787
0.39306867 -15.5257015 -9.027428 -5.677351 -12.341502 -6.0096016 -5.295518 5.778293
-5.335101 -6.1968946 -2.9723258 13.912173 -5.6127796 -13.378536 -1.75614 -21.750011
00000000: 7786 253e 4bd5 19c1 3d75 dc41 2802 b5c0
00000010: 2d11 c740 bc76 c340 830d 8f3e 5691 6dbe
00000020: ac4b a7c0 c095 bcc0 92b0 bc40 6756 2ec1
00000030: b15a c6c0 9e89 ce3e accb a43e bd53 5cbe
00000040: 02d4 9d3e 4234 ccc0 cab3 81c1 aae7 bfc0
00000050: e1b0 bbbe 67c6 2940 07c8 b8c0 fb49 053e
00000060: e603 89c0 dcb9 67be 88d9 9cbe 7ffa c8c0
00000070: a6b7 1bbe 9cae 1b42 43c7 333e 3251 acc0
00000080: 6c25 0ec1 c831 f2c0 248a b0c0 ed5d c8c0
00000090: e37c 44bd a496 bac0 59e6 c33f 230c a0be
000000a0: 6f38 99c0 0751 53c1 f797 823c 3afb 5fbe
000000b0: c67a 78c0 12e5 b9c0 050d c840 51b3 48c1
000000c0: 2237 8742 a5e8 c1c0 aeac b7c1 30fc a440
000000d0: 0fae 5e3d 2256 8cbe d2f8 b7c1 8da3 afc0
000000e0: c9c3 8a3e 942f bf40 a5b3 6fc0 0d2a 52c1
000000f0: c8ab 4a40 d710 b1c0 f492 38bf 8ebe 09c0
00000100: 0ad7 2cc1 03f2 c6c0 f1b8 57c0 559d bcc0
00000110: 943d 2dc1 2607 c3c0 4ef6 cac0 1f42 63c0
00000120: 3bce 27c1 4035 f23d 6102 35bd 8127 c341
00000130: d184 bdbf b40f 12be 96e2 b9c0 76e1 26c2
00000140: 380c bfc0 864c a43e f0be 7c40 42bd c240
00000150: 3619 21c1 75c8 c6c0 b561 54be 867a 283f
00000160: 5a78 cabd 50ab 19c1 b26c 12c0 93cf b7c0
00000170: 3994 40c1 cecb bdc0 f4f1 c1be 349c c540
00000180: b17b c43e ad0b 80c1 50d6 3dc0 52e4 47c1
00000190: d624 cec1 87fc c8c0 cc9b ccc0 93fe fbc1
000001a0: df2f 853e 1cb1 7d3e 5659 4f41 030a c3be
000001b0: 2cf3 cbc0 5632 cac0 33cb c840 4212 c1c0
000001c0: 4c40 c93e 4669 78c1 5870 10c1 dcac b5c0
000001d0: cb76 45c1 a84e c0c0 e274 a9c0 c7e7 b840
000001e0: 26b9 aac0 f64c c6c0 963a 3ec0 4398 5e41
000001f0: e49b b3c0 7c0e 56c1 32c9 e0bf 0600 aec1

rnn.weight_ih_l0 f4 [384, 128]
0.06298114 5.603221 5.373684 5.1720057 5.052193 1.511228 0.042769484 0.0145634115
-0.038874473 0.06263422 1.7348106 0.08506804 4.730276 0.070927285 0.033706266 0.06418436
0.0650171 0.030172246 0.020430982 5.3530445 -0.07307785 3.5784123 3.0994275 0.07038517
0.0046873353 -0.08830275 0.083262764 4.698232 0.032322798 0.05509271 0.067914486 -0.052605
0.062126145 0.063492015 0.0445127 -0.04846315 -0.018515743 0.0733167 3.838479 0.05206629
3.947149 3.382552 -0.06125667 -0.052901007 -0.07709264 4.959859 0.028186673 -0.016341086
0.019367067 -0.064583026 0.0021735942 4.427543 -0.07330534 -0.025481425 -0.0127519 0.02917383
-0.025152965 4.0153522 5.5874715 5.306484 -0.04258625 -0.056318484 0.02322415 5.3509316
-0.015799126 -0.03995576 1.167584 5.509155 5.088758 -0.0793296 -0.044710502 5.417273
0.027903501 4.6893044 -0.06526802 4.815457 5.72352 -0.03962928 5.353278 5.3848257
0.012750714 -0.079912476 5.606053 4.2687454 5.123984 0.55064875 -0.059879996 0.046348408
0.055482976 5.5454607 -0.08322812 5.2887735 4.6980968 1.662439 0.05110728 2.5269716
-0.04203203 5.1951885 -0.009431285 4.701638 5.174388 0.046702616 5.486701 0.0349693
5.341173 -0.06916189 4.9274154 -0.03708282 5.135556 0.07377385 5.088443 4.5403023
-0.0793391 5.3449855 -0.043064225 5.6129065 2.9934397 0.080889255 4.768596 0.07346952
-0.0035301042 5.2189484 -0.06448438 -0.009444234 -0.020213995 3.7958395 -0.06219721 4.169159
-0.045202475 -5.16023 -4.5907516 -4.3487697 -4.3051033 -0.79604363 0.043215923 0.04555014
-0.042499226 -0.026516268 -0.96240556 -0.045750815 -3.7477708 0.043704785 0.07089803 -0.0323727
0.04290915 -0.04863724 -0.015422564 -4.637253 0.044177316 -2.2664068 -1.9687227 0.08377139
0.021676851 -0.06888793 -0.044706974 -3.6966329 -0.06579035 -0.021489076 -0.08222602 0.01998436
-0.034284774 -0.060027964 0.06443854 -0.0055632996 0.02692447 -0.024313305 -2.7781508 0.033879384
-2.6905792 -2.2380784 0.032294843 -0.02241185 0.08043794 -4.075536 -0.07396696 -0.026883662
-0.04012186 -0.07267262 -0.07610694 -3.4302857 0.047110017 -0.032958888 -0.0730582 -0.06806946
-0.05868098 -2.844698 -5.185345 -4.687973 -0.060656246 -0.017206924 -0.008452529 -4.8635287
0.016756386 0.061738577 -0.6101768 -4.8717613 -4.2697506 0.07017667 -0.08314624 -4.7496777
-0.021892536 -3.4934227 -0.010817673 -3.8404977 -5.3922396 0.06472024 -4.6757812 -4.8002787
-0.032315664 -0.04698599 -5.1251445 -3.1046875 -4.321989 -0.27695978 -0.021176368 0.005942969
-0.0461636 -5.0636964 -0.009753329 -4.4814777 -3.6097338 -0.91245604 0.08671738 -1.4858584
0.014953154 -4.5837536 -0.062289562 -3.6427014 -4.2949615 -0.073495254 -4.9160166 0.082811855
-4.773144 0.07350258 -4.072326 -0.058004756 -4.4668264 -0.018129025 -4.3653293 -3.4283752
0.06533201 -4.8614383 0.08046338 -5.2244544 -1.8501318 -0.08221087 -3.7970753 0.034423787
-0.023037868 -4.471198 -0.08744992 0.060486417 0.037336037 -2.5646484 -0.06942747 -3.07688
00000000: 42fc 803d 964d b340 38f5 ab40 1281 a540
00000010: 91ab a140 eb6f c13f 0e2f 2f3d 609b 6e3c
00000020: d73a 1fbd 5f46 803d 460e de3f 2738 ae3d
00000030: 6c5e 9740 5342 913d 950f 0a3d 1773 833d
00000040: af27 853d c92b f73c e05e a73c 244c ab40
00000050: d7a9 95bd b504 6540 055d 4640 1a26 903d
00000060: 3898 993b 12d8 b4bd ab85 aa3d eb57 9640
00000070: e964 043d e5a8 613d c016 8b3d 5778 57bd
00000080: fc77 7e3d 1a08 823d f352 363d 4c81 46bd
00000090: 54ae 97bc 1127 963d a4a9 7540 7643 553d
000000a0: 179e 7c40 bb7b 5840 46e8 7abd baae 58bd
000000b0: bfe2 9dbd 2ab7 9e40 bde7 e63c bedd 85bc
000000c0: afa7 9e3c 1b44 84bd dc72 0e3b 6fae 8d40
000000d0: 1c21 96bd 6cbe d0bc 58ed 50bc f5fd ee3c
000000e0: 970d cebc c47d 8040 91cc b240 b8ce a940
000000f0: eb6e 2ebd 36ae 66bd 9340 be3c d53a ab40
00000100: 2b6d 81bc a7a8 23bd 6473 953f ff4a b040
00000110: 1bd7 a240 8f77 a2bd 5c22 37bd 4d5a ad40
00000120: e295 e43c c80e 9640 3dab 85bd 3918 9a40
00000130: 1327 b740 5052 22bd 0e4e ab40 7e50 ac40
00000140: 5fe8 503c 27a9 a3bd c964 b340 9099 8840
00000150: adf7 a340 51f7 0c3f ba44 75bd d4d7 3d3d
00000160: 1e42 633d 6a74 b140 8173 aabd a23d a940
00000170: cf56 9640 cdca d43f de55 513d e7b9 2140
00000180: c729 2cbd fc3e a640 ad85 1abc d273 9640
00000190: 9694 a540 3e4b 3f3d 0e93 af40 f83b 0f3d
000001a0: e4ea aa40 c0a4 8dbd 63ad 9d40 28e4 17bd
000001b0: 7a56 a440 bf16 973d 86d4 a240 284a 9140
000001c0: 8a7c a2bd 1f0a ab40 1d64 30bd ee9c b340
000001d0: 8494 3f40 44a9 a53d 5798 9840 3077 963d
000001e0: 5259 67bb a001 a740 6310 84bd fdbb 1abc
000001f0: d297 a5bc 09ef 7240 80c2 7ebd c069 8540
00000200: 3b26 39bd 9b20 a5c0 70e7 92c0 1f29 8bc0
00000210: 68c3 89c0 84c9 4bbf 2e03 313d c992 3a3d
00000220: ab13 2ebd a538 d9bc 3660 76bf 3565 3bbd
00000230: 7adb 6fc0 ca03 333d fd32 913d 3c99 04bd
00000240: 81c1 2f3d d837 47bd ecae 7cbc 6064 94c0
00000250: 46f3 343d cf0c 11c0 1bff fbbf 5690 ab3d
00000260: a793 b13c 1d15 8dbd a91e 37bd a295 6cc0
00000270: 17bd 86bd dc09 b0bc 1e66 a8bd 3eb6 a33c
00000280: 316e 0cbd e2df 75bd 5af8 833d 574c b6bb
00000290: b590 dc3c b22c c7bc 39cd 31c0 1cc5 0a3d
000002a0: 7332 2cc0 ad3c 0fc0 9947 043d 0e99 b7bc
000002b0: a6bc a43d ca6a 82c0 fd7b 97bd 203b dcbc
000002c0: d256 24bd 62d5 94bd f5dd 9bbd cd89 5bc0
000002d0: 6ff6 403d e6ff 06bd 8a9f 95bd 0068 8bbd
000002e0: 785b 70bd 880f 36c0 59ee a5c0 e003 96c0
000002f0: af72 78bd 89f5 8cbc 7a7c 0abc 07a2 9bc0
00000300: b044 893c 97e1 7c3d 8c34 1cbf 78e5 9bc0
00000310: cca1 88c0 c9b8 8f3d 9348 aabd 5cfd 97c0
00000320: fa57 b3bc 3d94 5fc0 9c3c 31bc b7ca 75c0
00000330: 3a8d acc0 0c8c 843d 00a0 95c0 e29b 99c0
00000340: 6e5d 04bd 6274 40bd 2f01 a4c0 33b3 46c0
00000350: bc4d 8ac0 accd 8dbe 107a adbc 3dbd c23b
00000360: 0b16 3dbd cd09 a2c0 6dcc 1fbc 4468 8fc0
00000370: e105 67c0 b896 69bf e298 b13d 9c30 bebf
00000380: 13fe 743c 1cae 92c0 5723 7fbd 0522 69c0
00000390: 5370 89c0 ae84 96bd 0250 9dc0 4399 a93d
000003a0: 98bd 98c0 8588 963d 7f50 82c0 6596 6dbd
000003b0: 3ef0 8ec0 5283 94bc c7b0 8bc0 806a 5bc0
000003c0: cacc 853d e790 9bc0 fcc9 a43d bb2e a7c0
000003d0: 1ed1 ecbf 2c5e a8bd 4803 73c0 f5ff 0c3d
000003e0: e9b9 bcbc 0e14 8fc0 f218 b3bd 9bc0 773d
000003f0: aced 183d 3323 24c0 fd2f 8ebd 9aeb 44c0

rnn.weight_hh_l0 f4 [384, 128]
5.3150053 5.234857 -5.25276 -5.2689424 -5.1678596 5.1798863 5.23267 -5.1589465
-0.08417441 -5.1930976 -5.1482525 5.1680713 -5.2932143 -5.2714267 5.2771754 -5.2353015
-5.183113 5.199607 5.2731366 5.153452 -5.2260118 5.2193437 4.126905 -5.26173
-5.2613153 5.183515 5.2004895 -5.2454715 -5.225286 -5.265443 -5.188265 -5.208317
5.2889986 5.185031 -5.2629247 -5.2446575 -5.2366157 -5.300628 5.283558 5.173332
0.45075643 5.1848392 -5.153874 -5.311729 5.2636685 5.1848626 5.2996383 0.01680732
-4.097392 -5.213195 5.2096624 5.2533865 5.1750097 5.2634697 5.2746572 -5.210792
5.2203116 -5.3011794 -5.2154384 5.29124 5.3070126 5.2057095 -5.2877927 5.118583
5.2368765 -5.2920504 5.2429647 5.1794724 -0.07919673 5.21863 -5.309612 4.8212943
-5.1975207 5.3147163 -5.2646403 5.0059595 -5.203253 -5.170247 -5.3144116 -5.1629667
5.173188 -5.1999846 -5.2434344 5.1174974 5.2974954 -5.319359 5.254652 5.2912717
-5.173699 5.1991267 -5.2650585 -1.762817 -3.8123183 -5.320011 5.1764927 -5.22082
5.2327733 -5.247966 5.319433 -5.28083 5.316923 5.290938 5.1607738 -5.219566
5.279806 5.2419915 5.3094044 5.186694 5.3088703 -5.2303104 5.241462 5.203393
5.2728043 -5.2894845 -5.312744 5.2280183 5.2781277 5.2509027 5.31599 5.229686
-5.1723943 5.194665 -5.2074428 5.1859803 5.1747494 5.318875 -5.094045 -2.5903206
21.878881 21.76527 4.438311 -21.872791 4.4372954 21.843546 -30.696241 4.4918795
26.257662 30.749119 4.4598866 21.84624 30.725822 -21.781885 21.826042 -21.805605
30.830498 21.80381 -30.762983 -30.744547 30.687483 -30.687677 -29.154161 30.778685
30.777573 -30.724552 21.713957 -21.815643 4.5177226 -21.776438 -21.798828 30.856386
-30.741234 -4.4213943 -21.875229 -21.871204 -21.799824 30.688877 21.737297 -30.734488
26.11745 -30.725275 4.4457645 30.692251 21.71725 21.827906 -30.847616 26.31703
29.33564 -21.834492 -30.692434 -4.4807925 -30.769936 -30.837492 -30.844774 4.4115987
-30.74789 -21.871325 4.4972816 21.853312 -30.754274 -30.81266 -21.80143 -30.639547
-30.775486 -21.875675 -4.4957194 21.734854 -26.223772 -30.853243 -21.751095 -30.251192
30.785872 21.764074 -21.877499 -30.41389 -21.710434 30.715946 -21.746113 -21.727316
-4.5291357 30.859892 -21.90844 22.104963 21.791138 -21.842394 -4.508721 21.87304
30.836498 -30.594921 -21.867155 -25.254103 -23.650919 30.797808 21.736387 30.705132
-4.5468955 -21.762579 21.749945 -21.727428 -4.5691 21.735994 -4.397303 30.793253
-30.74904 -30.8321 -30.724924 -30.709936 -30.848833 -21.977694 -30.73516 -30.721521
-30.776262 30.707428 30.832514 -30.790781 -4.4304595 -30.690725 21.856482 21.892279
-21.806007 -30.827847 4.425643 21.732454 -4.500846 21.764803 -22.125607 -24.859612
00000000: 8614 aa40 f383 a740 9c16 a8c0 2d9b a8c0
00000010: 1b5f a5c0 a1c1 a540 0872 a740 1716 a5c0
00000020: a263 acbd db2d a6c0 7cbe a4c0 d760 a540
00000030: 0362 a9c0 87af a8c0 9fde a840 9787 a7c0
00000040: 10dc a5c0 2e63 a640 89bd a840 14e9 a440
00000050: 7d3b a7c0 dd04 a740 9b0f 8440 1860 a8c0
00000060: b25c a8c0 5bdf a540 696a a640 e7da a7c0
00000070: 8b35 a7c0 827e a8c0 4406 a6c0 88aa a6c0
00000080: 7a3f a940 c6eb a540 e169 a8c0 3cd4 a7c0
00000090: 5b92 a7c0 bf9e a9c0 e812 a940 f08b a540
000000a0: 8cc9 e63e 34ea a540 89ec a4c0 aff9 a9c0
000000b0: f96f a840 65ea a540 a396 a940 81af 893c
000000c0: d61d 83c0 7ed2 a6c0 8eb5 a640 be1b a840
000000d0: ae99 a540 586e a840 fec9 a840 cfbe a6c0
000000e0: cb0c a740 43a3 a9c0 dfe4 a6c0 d751 a940
000000f0: 0cd3 a940 2c95 a640 9935 a9c0 6fcb a340
00000100: 7e94 a740 7a58 a9c0 5ec6 a740 3dbe a540
00000110: e531 a2bd 04ff a640 57e8 a9c0 0b48 9a40
00000120: 1752 a6c0 2812 aa40 ef77 a8c0 d230 a040
00000130: 0c81 a6c0 aa72 a5c0 a90f aac0 0637 a5c0
00000140: c28a a540 4666 a6c0 37ca a7c0 8ac2 a340
00000150: 1585 a940 3038 aac0 1c26 a840 1952 a940
00000160: f18e a5c0 3f5f a640 5c7b a8c0 fda3 e1bf
00000170: 06fd 73c0 883d aac0 d4a5 a540 f510 a7c0
00000180: e172 a740 56ef a7c0 cc38 aa40 8ffc a8c0
00000190: 3c24 aa40 5d4f a940 0f25 a540 af06 a7c0
000001a0: 2cf4 a840 65be a740 a4e6 a940 66f9 a540
000001b0: 44e2 a940 b45e a7c0 0fba a740 3282 a640
000001c0: d0ba a840 7543 a9c0 0002 aac0 ed4b a740
000001d0: 6ce6 a840 6507 a840 971c aa40 9659 a740
000001e0: 4184 a5c0 b23a a640 5fa3 a6c0 8df3 a540
000001f0: 8c97 a540 3934 aa40 6b02 a3c0 d0c7 25c0
00000200: f307 af41 461f ae41 a506 8e40 7afb aec1
00000210: 53fe 8d40 95bf ae41 e791 f5c1 7abd 8f40
00000220: b10f d241 32fe f541 64b7 8e40 19c5 ae41
00000230: 7cce f541 4d41 aec1 bc9b ae41 e171 aec1
00000240: dca4 f641 346e ae41 971a f6c1 d5f4 f5c1
00000250: f77f f541 5d80 f5c1 b93b e9c1 bf3a f641
00000260: 7838 f641 e2cb f5c1 2fb6 ad41 7086 aec1
00000270: 2f91 9040 2536 aec1 0064 aec1 e1d9 f641
00000280: 0cee f5c1 107c 8dc0 7800 afc1 3af8 aec1
00000290: 0a66 aec1 d282 f541 fce5 ad41 3be0 f5c1
000002a0: 8af0 d041 5dcd f5c1 b443 8e40 bb89 f541
000002b0: eebc ad41 8d9f ae41 ebc7 f6c1 4789 d241
000002c0: 64af ea41 0aad aec1 1b8a f5c1 a762 8fc0
000002d0: d428 f6c1 2fb3 f6c1 19c2 f6c1 d12b 8d40
000002e0: aefb f5c1 79f8 aec1 bbe9 8f40 95d3 ae41
000002f0: c108 f6c1 5480 f6c1 5469 aec1 cb1d f5c1
00000300: 3234 f6c1 6201 afc1 efdc 8fc0 fbe0 ad41
00000310: 49ca d1c1 71d3 f6c1 3e02 aec1 7102 f2c1
00000320: 7749 f641 d31c ae41 1e05 afc1 a64f f3c1
00000330: f8ae adc1 42ba f541 0af8 adc1 8bd1 adc1
00000340: aeee 90c0 0fe1 f641 7c44 afc1 f7d6 b041
00000350: 4054 ae41 39bd aec1 7147 90c0 fcfb ae41
00000360: 26b1 f641 66c2 f4c1 efef aec1 6708 cac1
00000370: 1535 bdc1 e961 f641 1fe4 ad41 1ca4 f541
00000380: 2b80 91c0 c319 aec1 e3ff ad41 c6d1 adc1
00000390: 1136 92c0 51e3 ad41 b5b6 8cc0 9558 f641
000003a0: 09fe f5c1 24a8 f6c1 a5cc f5c1 f3ad f5c1
000003b0: 69ca f6c1 51d2 afc1 9ce1 f5c1 adc5 f5c1
000003c0: c935 f6c1 d0a8 f541 fda8 f641 8553 f6c1
000003d0: 53c6 8dc0 9b86 f5c1 13da ae41 6323 af41
000003e0: b472 aec1 6e9f f6c1 de9e 8d40 11dc ad41
000003f0: ee06 90c0 511e ae41 3e01 b1c1 7ce0 c6c1

rnn.bias_ih_l0 f4 [384]
5.218862 21.754642 -25.14202 0.084026456 -0.038091693 -25.097391 -5.9131536 -25.084507
-31.00861 0.075208046 0.013003934 9.496087 -23.048132 -3.8101952 -4.1303606 0.048819218
0.057646237 -3.4830284 4.7783732 5.4484653 25.082487 -3.1911526 -0.5611897 0.02621633
21.170881 -3.148016 0.081441306 -25.26758 -2.762544 0.06619431 -0.08767869 5.029574
-0.63643485 -21.375639 -0.3707736 18.75977 5.8776193 23.015528 25.059355 -1.9151305
1.3743235 -5.660165 -0.08749767 1.346817 2.5729616 4.9399157 -32.289516 12.062128
-20.383343 -5.5754843 0.0068896883 -3.9984586 1.8904895 2.0436423 3.4394422 0.035718378
25.809769 -0.015533895 -0.074407026 0.29350063 2.7935162 0.9146567 1.2547829 4.908971
5.2514224 -25.2348 -6.8793626 5.2720366 -6.0257525 5.2008986 -0.07545099 -5.2986474
0.1229049 30.781084 0.08305303 5.9565463 25.167019 25.184088 25.073069 -25.58539
-5.157867 0.06159612 4.1140003 -5.3541408 -5.734169 28.757017 -5.820012 4.2164965
-14.509195 -16.971779 -23.556744 25.131899 2.0380182 -0.05088784 -5.981942 24.866846
-5.1015825 -30.07989 6.019663 0.007306251 4.7545395 -22.692953 -4.2809453 -9.238626
2.8852217 0.04644628 -4.443135 -5.6272798 3.4786546 -26.135347 -5.0048265 6.0433774
-1.6963129 -1.774768 -25.247536 25.40299 -4.5599136 -3.0015602 1.4577466 0.6606496
0.0716609 25.107641 -5.406063 5.8760204 -5.530661 4.8978653 7.386724 -0.010545502
35.288136 -15.425674 25.132744 5.0395613 28.269497 -24.537472 -6.0205913 25.127945
-53.922726 -5.4591384 5.1139493 -52.03646 26.166096 -24.223059 -4.0845914 -0.038081698
-4.280523 0.8121663 -22.68891 20.871433 24.447334 5.672273 -23.784208 9.057714
-3.680798 1.1929508 -1.4921345 1.1690322 18.847538 -5.9642844 -3.5183823 -52.477734
30.616976 -23.96178 4.276379 30.499933 -18.632978 -5.201644 21.561651 24.640652
23.878708 -15.163983 26.352964 -8.958113 -5.018536 -5.8720183 32.46185 -18.31184
4.186565 5.493091 -21.155499 -23.418232 8.839852 -7.348687 24.204361 24.586826
-28.057283 5.025601 24.580538 -5.8312073 -32.56333 8.175644 0.40331638 21.173738
-23.55102 -0.19865389 -20.924711 -48.558064 5.997134 -5.9832673 23.610619 0.2018137
-5.515104 -5.5161924 4.571633 -5.853775 27.65083 -25.106634 -20.52699 23.146194
25.91376 15.780257 24.760244 3.1563692 5.6558423 -24.084713 -19.19231 -5.86369
-5.1539016 -2.5762763 36.472504 -12.061422 -5.9205894 12.2943325 5.919102 25.226118
30.758537 30.819422 -5.946829 -12.967461 15.367017 35.82726 -0.49458292 -30.527122
-5.265466 -5.88027 -5.5457435 -36.146774 14.283145 6.615139 -34.643246 47.710037
-13.984083 21.819777 21.842777 29.624863 9.570285 21.991692 -29.863188 -19.77269
-10.453999 -25.180643 -6.1346827 6.0019264 29.199446 5.7207766 -10.991594 -5.9141026
00000000: eb00 a740 8209 ae41 db22 c9c1 1016 ac3d
00000010: 0906 1cbd 75c7 c8c1 8e38 bdc0 12ad c8c1
00000020: a211 f8c1 ad06 9a3d 740e 553c f9ef 1741
00000030: 9362 b8c1 3dda 73c0 ea2b 84c0 a9f6 473d
00000040: 761e 6c3d f0e9 5ec0 6fe8 9840 d459 ae40
00000050: efa8 c841 d83b 4cc0 21aa 0fbf a1c3 d63c
00000060: f75d a941 1879 49c0 b3ca a63d 0124 cac1
00000070: 85cd 30c0 e290 873d e390 b3bd 45f2 a040
00000080: 65ed 22bf 4f01 abc1 0ad6 bdbe 0214 9641
00000090: 7515 bc40 cd1f b841 8f79 c841 ff22 f5bf
000000a0: d5e9 af3f 1220 b5c0 fa31 b3bd 8064 ac3f
000000b0: 67ab 2440 ca13 9e40 7728 01c2 7afe 4041
000000c0: 1611 a3c1 5e6a b2c0 e5c2 e13b bfe6 7fc0
000000d0: 8ffb f13f 09cb 0240 d21f 5c40 6f4d 123d
000000e0: 687a ce41 e181 7ebc b662 98bd b745 963e
000000f0: f8c8 3240 f126 6a3f ba9c a03f 4a16 9d40
00000100: a70b a840 dfe0 c9c1 bd23 dcc0 86b4 a840
00000110: f7d2 c0c0 c36d a640 0c86 9abd 858e a9c0
00000120: 90b5 fb3d a93f f641 b517 aa3d 079c be40
00000130: 0e56 c941 0379 c941 a595 c841 e1ae ccc1
00000140: 3f0d a5c0 374c 7c3d e4a5 8340 1f55 abc0
00000150: 507e b7c0 5f0e e641 8a3d bac0 8aed 8640
00000160: aa25 68c1 34c6 87c1 3674 bcc1 210e c941
00000170: e46e 0240 c56f 50bd 126c bfc0 4def c641
00000180: 2a40 a3c0 9da3 f0c1 14a1 c040 4769 ef3b
00000190: 3025 9840 2b8b b5c1 81fd 88c0 69d1 13c1
000001a0: 79a7 3840 743e 3e3d 292e 8ec0 ad12 b4c0
000001b0: 47a2 5e40 3115 d1c1 8a27 a0c0 5963 c140
000001c0: c820 d9bf 992b e3bf f4fa c9c1 5339 cb41
000001d0: d0ea 91c0 9019 40c0 7197 ba3f 5520 293f
000001e0: f3c2 923d 73dc c841 78fe acc0 5c08 bc40
000001f0: 2dfb b0c0 50bb 9c40 0b60 ec40 0bc7 2cbc
00000200: 0d27 0d42 90cf 76c1 dc0f c941 1644 a140
00000210: ee27 e241 be4c c4c1 afa8 c0c0 0806 c941
00000220: dfb0 57c2 43b1 aec0 79a5 a340 5625 50c2
00000230: 2a54 d141 d3c8 c1c1 f9b4 82c0 8efb 1bbd
00000240: 0bfa 88c0 21ea 4f3f e382 b5c1 b2f8 a641
00000250: 2494 c341 4383 b540 0f46 bec1 66ec 1041
00000260: 3292 6bc0 9db2 983f 43fe bebf d9a2 953f
00000270: c2c7 9641 6bdb bec0 2d2d 61c0 33e9 51c2
00000280: 91ef f441 bab1 bfc1 19d8 8840 ddff f341
00000290: 5710 95c1 de73 a6c0 437e ac41 0e20 c541
000002a0: 9807 bf41 ad9f 72c1 dfd2 d241 6e54 0fc1
000002b0: d997 a0c0 93e7 bbc0 efd8 0142 a67e 92c1
000002c0: 57f8 8540 67c7 af40 763e a9c1 8a58 bbc1
000002d0: 0970 0d41 7228 ebc0 88a2 c141 d2b1 c441
000002e0: 5175 e0c1 b9d1 a040 f1a4 c441 4099 bac0
000002f0: da40 02c2 70cf 0241 7c7f ce3e d163 a941
00000300: 7d68 bcc1 ed6b 4bbe cf65 a7c1 753b 42c2
00000310: 86e8 bf40 ed76 bfc0 8ce2 bc41 40a8 4e3e
00000320: bb7b b0c0 a684 b0c0 d14a 9240 2052 bbc0
00000330: e634 dd41 63da c8c1 4737 a4c1 682b b941
00000340: 614f cf41 ef7b 7c41 fb14 c641 f401 4a40
00000350: a9fc b440 7ead c0c1 da89 99c1 59a3 bbc0
00000360: c3ec a4c0 b6e1 24c0 d8e3 1142 96fb 40c1
00000370: 7875 bdc0 96b5 4441 4969 bd40 17cf c941
00000380: 7c11 f641 2d8e f641 6c4c bec0 b87a 4fc1
00000390: 4ddf 7541 1d4f 0f42 f939 fdbe 8c37 f4c1
000003a0: b37e a8c0 2c2b bcc0 bb76 b1c0 4c96 10c2
000003b0: c387 6441 38af d340 af92 0ac2 14d7 3e42
000003c0: cebe 5fc1 e78e ae41 02be ae41 b8ff ec41
000003d0: e31f 1941 fcee af41 cfe7 eec1 782e 9ec1
000003e0: 9443 27c1 f571 c9c1 524f c4c0 c80f c040
000003f0: 7798 e941 9a10 b740 92dd 2fc1 5440 bdc0

rnn.bias_hh_l0 f4 [384]
5.308987 21.826805 -25.080315 -0.055267572 -0.06823214 -25.093899 -5.9895496 -25.044418
-31.050346 -0.017790027 0.03410799 9.623352 -23.158113 -3.7303576 -4.1769314 -0.019900456
-0.01453237 -3.335001 4.8080277 5.517829 24.955769 -3.117751 -0.5791517 -0.057688847
21.157341 -3.025868 -0.08071407 -25.22687 -2.70867 0.076652996 0.018090243 5.164394
-0.63352925 -21.373018 -0.3871703 18.862698 5.935369 22.952578 25.110485 -1.8923405
1.428465 -5.5931444 -0.07057194 1.2590925 2.6107085 4.883349 -32.278896 12.117209
-20.412197 -5.4689474 0.13693741 -3.9675133 1.849967 2.031843 3.5283122 0.059735738
25.850845 -0.009413931 -0.04086705 0.28319052 2.6214511 1.014837 1.2198131 4.872687
5.173222 -25.093855 -6.763495 5.3778234 -5.9942355 5.136399 -0.051711116 -5.209104
0.1296716 30.768484 -0.0683549 5.896973 25.20853 25.116964 25.166067 -25.548601
-5.2926083 0.035578176 4.0980663 -5.512668 -5.723759 28.735708 -5.8459954 4.1449
-14.520237 -16.83746 -23.568882 25.151825 2.0391774 0.06007597 -5.988554 25.035273
-5.18145 -30.134878 6.0482078 -0.006475747 4.8376966 -22.678076 -4.338647 -9.309415
2.761981 -0.076135986 -4.44749 -5.552658 3.4678457 -26.059065 -5.0556564 6.109743
-1.5848219 -1.7263635 -25.19175 25.262934 -4.4961476 -2.91025 1.5802087 0.58798546
0.0011354056 25.140509 -5.4163656 5.933744 -5.3729644 5.040217 7.3343472 -0.0012817213
35.292973 -15.4369335 25.175825 4.994796 28.265604 -24.613054 -6.050956 25.098217
-53.89862 -5.4406114 5.084294 -51.965782 26.216827 -24.143353 -4.1043115 0.036299523
-4.2428403 0.8097449 -22.762125 21.022535 24.435158 5.657447 -23.760447 9.07762
-3.7722883 1.1731334 -1.4667934 1.20988 18.93792 -6.0495186 -3.429793 -52.491543
30.62663 -23.991497 4.2243347 30.468992 -18.507025 -5.1706395 21.600258 24.632893
23.811325 -15.221116 26.450071 -8.898466 -4.9025474 -5.8975725 32.491825 -18.22423
4.111793 5.604457 -21.115906 -23.404634 8.748535 -7.2393336 24.34596 24.628906
-28.020302 5.075648 24.626732 -5.765075 -32.704124 8.1880245 0.34492174 21.048334
-23.489754 -0.15520842 -20.981403 -48.661995 5.9148245 -5.904528 23.731321 0.12550157
-5.644581 -5.526049 4.528934 -5.814967 27.637089 -25.060137 -20.585142 23.123573
25.999857 15.775514 24.719172 3.1120389 5.593804 -23.995464 -19.150042 -5.873445
-5.28686 -2.5746455 36.43702 -12.029739 -5.923636 12.326597 5.9683456 25.30916
30.838596 30.750092 -5.9559183 -12.941539 15.285861 35.81967 -0.49349573 -30.510387
-5.190399 -5.9262285 -5.4692307 -36.158463 14.439956 6.483132 -34.580994 47.748047
-14.091894 21.733435 21.754652 29.660353 9.427122 21.876709 -29.98077 -19.753002
-10.538116 -25.25334 -6.1277294 6.076129 29.060398 5.6754503 -10.927213 -5.9904675
00000000: 39e3 a940 4c9d ae41 7ca4 c8c1 4060 62bd
00000010: 4bbd 8bbd 4ec0 c8c1 64aa bfc0 f85a c8c1
00000020: 1c67 f8c1 64bc 91bc d2b4 0b3d 40f9 1941
00000030: d143 b9c1 2ebe 6ec0 6ca9 85c0 4806 a3bc
00000040: 2d19 6ebc a870 55c0 5ddb 9940 0e92 b040
00000050: 6aa5 c741 3b89 47c0 4943 14bf 244b 6cbd
00000060: 3c42 a941 d2a7 41c0 6b4d a5bd a1d0 c9c1
00000070: d95a 2dc0 3ffc 9c3d fd31 943c b742 a540
00000080: f92e 22bf f1fb aac1 303b c6be cee6 9641
00000090: 8bee bd40 e19e b741 46e2 c841 3738 f2bf
000000a0: f1d7 b63f 0afb b2c0 0588 90bd f129 a13f
000000b0: d915 2740 6544 9c40 971d 01c2 17e0 4141
000000c0: 2e4c a3c1 9e01 afc0 5239 0c3e bdeb 7dc0
000000d0: b8cb ec3f b709 0240 decf 6140 76ad 743d
000000e0: 88ce ce41 e33c 1abc 3564 27bd 59fe 903e
000000f0: dbc5 2740 2ee6 813f d622 9c3f 0ded 9b40
00000100: 098b a540 37c0 c8c1 8d6e d8c0 2117 ac40
00000110: c7d0 bfc0 615d a440 09cf 53bd fbb0 a6c0
00000120: a2c8 043e db25 f641 a7fd 8bbd 01b4 bc40
00000130: 12ab c941 8bef c841 1b54 c941 8963 ccc1
00000140: 0c5d a9c0 6cba 113d 5c23 8340 c767 b0c0
00000150: 0929 b7c0 bbe2 e541 6512 bbc0 05a3 8440
00000160: e452 68c1 1eb3 86c1 128d bcc1 f036 c941
00000170: e281 0240 3812 763d 3ca2 bfc0 3d48 c841
00000180: 70ce a5c0 3b14 f1c1 eb8a c140 8132 d4bb
00000190: 69ce 9a40 b36c b5c1 32d6 8ac0 5df3 14c1
000001a0: 4cc4 3040 2fed 9bbd d751 8ec0 60af b1c0
000001b0: 2ff1 5d40 f778 d0c1 f0c7 a1c0 0483 c340
000001c0: 72db cabf 7bf9 dcbf b488 c9c1 7d1a ca41
000001d0: 71e0 8fc0 8941 3ac0 4744 ca3f 3786 163f
000001e0: e4d1 943a c31f c941 de52 adc0 3be1 bd40
000001f0: 53ef abc0 7549 a140 f9b2 ea40 6eff a7ba
00000200: 012c 0d42 aefd 76c1 1768 c941 5ed5 9f40
00000210: f51f e241 89e7 c4c1 6ea1 c1c0 26c9 c841
00000220: 3098 57c2 7d19 aec0 89b2 a240 f6dc 4fc2
00000230: 10bc d141 9625 c1c1 8556 83c0 cfae 143d
00000240: 59c5 87c0 714b 4f3f d518 b6c1 272e a841
00000250: 347b c341 ce09 b540 6515 bec1 ee3d 1141
00000260: 2c6d 71c0 3c29 963f e3bf bbbf 59dd 9a3f
00000270: dc80 9741 a895 c1c0 ba81 5bc0 57f7 51c2
00000280: 5703 f541 96ee bfc1 c02d 8740 7fc0 f341
00000290: 630e 94c1 e175 a5c0 54cd ac41 2a10 c541
000002a0: 987d be41 b189 73c1 bf99 d341 1e60 0ec1
000002b0: abe1 9cc0 eab8 bcc0 a1f7 0142 39cb 91c1
000002c0: cf93 8340 b657 b340 60ed a8c1 b13c bbc1
000002d0: 00fa 0b41 9fa8 e7c0 87c4 c241 0008 c541
000002e0: 9429 e0c1 b56b a240 8c03 c541 7f7b b8c0
000002f0: 06d1 02c2 2602 0341 9599 b03e fd62 a841
00000300: 04eb bbc1 f5ee 1ebe ead9 a7c1 e2a5 42c2
00000310: 3e46 bd40 e5f1 bcc0 bfd9 bd41 7c83 003e
00000320: 68a0 b4c0 65d5 b0c0 07ed 9040 3614 bac0
00000330: c218 dd41 297b c8c1 5fae a4c1 14fd b841
00000340: b5ff cf41 8168 7c41 ddc0 c541 a52b 4740
00000350: 7100 b340 b6f6 bfc1 4933 99c1 43f3 bbc0
00000360: f52d a9c0 fec6 24c0 82bf 1142 d079 40c1
00000370: 6d8e bdc0 be39 4541 b0fc be40 2979 ca41
00000380: 72b5 f641 3000 f641 e296 bec0 8b10 4fc1
00000390: e392 7441 5847 0f42 79ab fcbe 4615 f4c1
000003a0: c017 a6c0 aaa3 bdc0 f003 afc0 44a2 10c2
000003b0: 0f0a 6741 d175 cf40 f052 0ac2 00fe 3e42
000003c0: 6678 61c1 13de ad41 8709 ae41 6748 ed41
000003d0: 7ed5 1641 8003 af41 9ed8 efc1 2606 9ec1
000003e0: 209c 28c1 d706 cac1 5c16 c4c0 a66f c240
000003f0: b27b e841 4a9d b540 ddd5 2ec1 e9b1 bfc0

l2.weight f4 [4, 128]
7.413202 15.402635 86.54984 13.668455 249.55193 174.68733 6.1591544 251.51114
15.98621 5.8113327 31.327072 8.524767 0.9902352 43.756695 7.8744206 11.458268
3.6938093 202.13098 -2.0350063 1.2561105 7.867711 35.94617 -47.495007 59.543484
4.1226897 5.997703 6.206161 1.9120846 195.0017 -6.791098 2.4153502 6.641897
5.6598573 87.70167 2.8899004 11.07018 498.12228 8.947529 9.329996 2.7060804
9.257504 -14.779831 192.55428 8.297232 6.505452 6.30345 64.75137 9.7449
8.932762 10.0330925 4.2176633 59.131245 3.3484352 1.2674665 3.369963 115.26599
-44.366196 -31.346037 -6.7571397 10.08839 6.052919 71.636986 -38.54487 -35.886456
224.73622 13.936253 31.95982 30.280249 -42.98887 0.9604565 1.7932229 28.022516
9.044671 4.6810036 7.0031977 11.647594 19.162146 39.664192 -8.50778 29.679136
78.626396 101.30857 16.357136 6.5640216 6.765878 -2.104742 206.1521 2.8200192
6.9994407 8.332675 -3.8201516 -2.6406832 5.6753845 187.7918 9.1166115 178.61
214.56728 4.4605975 3.3822494 20.314007 46.043858 11.915276 120.426735 8.829277
-3.4806345 21.314693 5.727061 17.194757 24.822906 -7.834932 -21.52927 24.408184
1.7914823 7.475713 5.268724 30.755384 57.406258 5.650538 7.249738 4.37642
28.919313 14.277736 96.903786 20.102478 24.270338 38.007107 161.05208 -2.2169402
7.5027437 15.498304 86.14774 13.800247 247.21196 171.19179 3.824055 243.56049
15.312205 5.7022095 31.668219 8.400052 0.718884 51.828148 7.779469 10.355792
3.826176 199.24033 -3.463653 1.2038192 7.8075438 35.40953 -92.4707 58.53756
4.1579413 5.9534707 6.354753 2.1336656 201.5199 -6.9637117 -22.001986 6.50975
-8.430225 83.45976 -19.56428 12.439531 486.74023 8.729934 9.056559 -39.75775
9.381938 -14.615464 187.95232 8.5031 6.5942864 6.2276998 69.9608 9.6490965
8.894955 7.3230214 3.9599726 58.55695 3.4955597 1.5479392 3.6035705 115.30679
-50.49142 -31.808022 -5.7573376 10.040702 5.6623616 70.0831 -38.59587 -41.308647
218.44817 13.394917 34.182266 28.956047 -44.26313 3.7035818 3.8617723 37.61243
8.97272 4.438447 5.471976 13.181426 13.615789 40.005566 1.4461572 45.481182
79.64881 100.333435 15.687308 6.316996 6.5619535 -4.3565474 197.66087 2.9387841
6.659198 15.458436 -4.598982 -1.6489902 2.0611534 184.10266 8.955129 174.69806
215.56651 2.0582578 3.1297424 30.28447 44.023056 11.826341 122.586555 9.056611
-23.818066 22.229622 5.3904157 50.832367 23.535645 -5.0020123 -20.609596 24.417212
1.8868463 7.4362297 5.1422777 30.46631 73.7055 -0.45659116 7.199132 4.0783887
33.756123 13.584018 90.563324 20.047754 27.843428 38.42861 158.11137 -1.3570651
00000000: f338 ed40 3171 7641 8519 ad42 feb1 5a41
00000010: 4b8d 7943 f5af 2e43 cb17 c540 da82 7b43
00000020: 84c7 7f41 70f6 b940 d89d fa41 7265 0841
00000030: 0e80 7d3f db06 2f42 41fb fb40 1155 3741
00000040: 5f67 6c40 8821 4a43 8b3d 02c0 3bc8 a03f
00000050: 4ac4 fb40 e1c8 0f42 e3fa 3dc2 872c 6e42
00000060: 13ed 8340 2fed bf40 df98 c640 30bf f43f
00000070: 6f00 4343 ad50 d9c0 1995 1a40 6c8a d440
00000080: 8d1d b540 4167 af42 21f4 3840 751f 3141
00000090: a70f f943 1429 0f41 aa47 1541 6c30 2d40
000000a0: bd1e 1441 307a 6cc1 e58d 4043 76c1 0441
000000b0: aa2c d040 ddb5 c940 b480 8142 1ceb 1b41
000000c0: 98ec 0e41 8c87 2041 19f7 8640 6586 6c42
000000d0: c34c 5640 583c a23f 79ad 5740 3088 e642
000000e0: fc76 31c2 afc4 fac1 7d3a d8c0 0c6a 2141
000000f0: 83b1 c140 2346 8f42 f22d 1ac2 bb8b 0fc2
00000100: 79bc 6043 e4fa 5e41 b6ad ff41 f33d f241
00000110: 9af4 2bc2 7ae0 753f 5488 e53f 1d2e e041
00000120: f9b6 1041 c8ca 9540 321a e040 8c5c 3a41
00000130: 134c 9941 22a8 1e42 de1f 08c1 df6e ed41
00000140: b740 9d42 fd9d ca42 6adb 8241 770c d240
00000150: 1382 d840 18b4 06c0 f026 4e43 327b 3440
00000160: 6bfb df40 a352 0541 5d7d 74c0 f400 29c0
00000170: c09c b540 b3ca 3b43 a4dd 1141 299c 3243
00000180: 3991 5643 37bd 8e40 c676 5840 1683 a241
00000190: e92c 3842 f8a4 3e41 7dda f042 b844 0d41
000001a0: b7c2 5ec0 7e84 aa41 1544 b740 dd8e 8941
000001b0: 5095 c641 c3b7 fac0 f23b acc1 f643 c341
000001c0: 4b4f e53f 0a39 ef40 6399 a840 070b f641
000001d0: 02a0 6542 35d1 b440 dbfd e740 a20b 8c40
000001e0: c15a e741 9b71 6441 bdce c142 e0d1 a041
000001f0: a729 c241 4707 1842 550d 2143 59e2 0dc0
00000200: 7a16 f040 0ef9 7741 a54b ac42 d0cd 5c41
00000210: 4336 7743 1931 2b43 51bd 7440 7c8f 7343
00000220: cbfe 7441 8078 b640 8358 fd41 9d66 0641
00000230: c808 383f 0650 4f42 69f1 f840 53b1 2541
00000240: 11e0 7440 863d 4743 7eac 5dc0 bf16 9a3f
00000250: 66d7 f940 5ca3 0d42 00f1 b8c2 7626 6a42
00000260: db0d 8540 d582 be40 235a cb40 fa8d 0840
00000270: 1885 4943 bad6 dec0 1104 b0c1 df4f d040
00000280: 34e2 06c1 66eb a642 a583 9cc1 5208 4741
00000290: c05e f343 cfad 0b41 aae7 1041 f007 1fc2
000002a0: 6b1c 1641 f1d8 69c1 cbf3 3b43 b30c 0841
000002b0: 6504 d340 5149 c740 eeeb 8b42 b362 1a41
000002c0: bc51 0e41 3156 ea40 3170 7d40 513a 6a42
000002d0: 40b7 5f40 df22 c63f e6a0 6640 149d e642
000002e0: 37f7 49c2 d476 fec1 1c3c b8c0 b7a6 2041
000002f0: 1132 b540 8c2a 8c42 2c62 1ac2 0e3c 25c2
00000300: bb72 5a43 9451 5641 a4ba 0842 fca5 e741
00000310: 720d 31c2 7c07 6d40 4727 7740 2173 1642
00000320: 4390 0f41 c207 8e40 6d1a af40 1fe7 5241
00000330: 46da 5941 b305 2042 ae1b b93f bbec 3542
00000340: 314c 9f42 b8aa c842 37ff 7a41 d524 ca40
00000350: 86fb d140 d668 8bc0 2fa9 4543 0a15 3c40
00000360: 2618 d540 c155 7741 dc2a 93c0 1c12 d3bf
00000370: f0e9 0340 481a 3843 3548 0f41 b4b2 2e43
00000380: 0791 5743 7fba 0340 b34d 4840 9846 f241
00000390: 9c17 3042 b138 3d41 512c f542 e1e7 1041
000003a0: 668b bec1 44d6 b141 497e ac40 5854 4b42
000003b0: 0049 bc41 7c10 a0c0 74e0 a4c1 7356 c341
000003c0: 2e84 f13f 98f5 ed40 8a8d a440 01bb f341
000003d0: 3769 9342 51c6 e9be 4a5f e640 2982 8240
000003e0: 4506 0742 2358 5941 6c20 b542 cd61 a041
000003f0: 57bf de41 e6b6 1942 831c 1e43 4fb4 adbf

l2.bias f4 [4]
58.082333 58.459057 46.76323 558.08984
00000000: 4f54 6842 13d6 6942 8c0d 3b42 c085 0b44
